[2023-05-12 11:17:43] {trans_forcer.py:21} WARNING - load checkpoint backbones/cifar10_swin_t_deformable_best_model_backbone.pt
[2023-05-12 11:17:44] {main.py:248} INFO - TransForcer(
  (encoder): SwinTransformerV2(
    (patch_embedding): PatchEmbedding(
      (linear_embedding): Conv2d(6, 96, kernel_size=(4, 4), stride=(4, 4))
      (normalization): LayerNorm((96,), eps=1e-05, elementwise_affine=True)
    )
    (stages): ModuleList(
      (0): SwinTransformerStage(
        (downsample): Identity()
        (blocks): ModuleList(
          (0): SwinTransformerBlock(
            (normalization_1): LayerNorm((96,), eps=1e-05, elementwise_affine=True)
            (normalization_2): LayerNorm((96,), eps=1e-05, elementwise_affine=True)
            (window_attention): WindowMultiHeadAttention(
              (mapping_qkv): Linear(in_features=96, out_features=288, bias=True)
              (attention_dropout): Dropout(p=0.0, inplace=False)
              (projection): Linear(in_features=96, out_features=96, bias=True)
              (projection_dropout): Dropout(p=0.0, inplace=False)
              (meta_network): Sequential(
                (0): Linear(in_features=2, out_features=256, bias=True)
                (1): ReLU(inplace=True)
                (2): Linear(in_features=256, out_features=3, bias=True)
              )
            )
            (dropout): Identity()
            (feed_forward_network): FeedForward(
              (0): Linear(in_features=96, out_features=384, bias=True)
              (1): GELU()
              (2): Dropout(p=0.0, inplace=False)
              (3): Linear(in_features=384, out_features=96, bias=True)
              (4): Dropout(p=0.0, inplace=False)
            )
          )
          (1): SwinTransformerBlock(
            (normalization_1): LayerNorm((96,), eps=1e-05, elementwise_affine=True)
            (normalization_2): LayerNorm((96,), eps=1e-05, elementwise_affine=True)
            (window_attention): WindowMultiHeadAttention(
              (mapping_qkv): Linear(in_features=96, out_features=288, bias=True)
              (attention_dropout): Dropout(p=0.0, inplace=False)
              (projection): Linear(in_features=96, out_features=96, bias=True)
              (projection_dropout): Dropout(p=0.0, inplace=False)
              (meta_network): Sequential(
                (0): Linear(in_features=2, out_features=256, bias=True)
                (1): ReLU(inplace=True)
                (2): Linear(in_features=256, out_features=3, bias=True)
              )
            )
            (dropout): DropPath(drop_prob=0.018)
            (feed_forward_network): FeedForward(
              (0): Linear(in_features=96, out_features=384, bias=True)
              (1): GELU()
              (2): Dropout(p=0.0, inplace=False)
              (3): Linear(in_features=384, out_features=96, bias=True)
              (4): Dropout(p=0.0, inplace=False)
            )
          )
        )
      )
      (1): SwinTransformerStage(
        (downsample): PatchMerging(
          (normalization): LayerNorm((384,), eps=1e-05, elementwise_affine=True)
          (linear_mapping): Linear(in_features=384, out_features=192, bias=False)
        )
        (blocks): ModuleList(
          (0): SwinTransformerBlock(
            (normalization_1): LayerNorm((192,), eps=1e-05, elementwise_affine=True)
            (normalization_2): LayerNorm((192,), eps=1e-05, elementwise_affine=True)
            (window_attention): WindowMultiHeadAttention(
              (mapping_qkv): Linear(in_features=192, out_features=576, bias=True)
              (attention_dropout): Dropout(p=0.0, inplace=False)
              (projection): Linear(in_features=192, out_features=192, bias=True)
              (projection_dropout): Dropout(p=0.0, inplace=False)
              (meta_network): Sequential(
                (0): Linear(in_features=2, out_features=256, bias=True)
                (1): ReLU(inplace=True)
                (2): Linear(in_features=256, out_features=6, bias=True)
              )
            )
            (dropout): DropPath(drop_prob=0.036)
            (feed_forward_network): FeedForward(
              (0): Linear(in_features=192, out_features=768, bias=True)
              (1): GELU()
              (2): Dropout(p=0.0, inplace=False)
              (3): Linear(in_features=768, out_features=192, bias=True)
              (4): Dropout(p=0.0, inplace=False)
            )
          )
          (1): SwinTransformerBlock(
            (normalization_1): LayerNorm((192,), eps=1e-05, elementwise_affine=True)
            (normalization_2): LayerNorm((192,), eps=1e-05, elementwise_affine=True)
            (window_attention): WindowMultiHeadAttention(
              (mapping_qkv): Linear(in_features=192, out_features=576, bias=True)
              (attention_dropout): Dropout(p=0.0, inplace=False)
              (projection): Linear(in_features=192, out_features=192, bias=True)
              (projection_dropout): Dropout(p=0.0, inplace=False)
              (meta_network): Sequential(
                (0): Linear(in_features=2, out_features=256, bias=True)
                (1): ReLU(inplace=True)
                (2): Linear(in_features=256, out_features=6, bias=True)
              )
            )
            (dropout): DropPath(drop_prob=0.055)
            (feed_forward_network): FeedForward(
              (0): Linear(in_features=192, out_features=768, bias=True)
              (1): GELU()
              (2): Dropout(p=0.0, inplace=False)
              (3): Linear(in_features=768, out_features=192, bias=True)
              (4): Dropout(p=0.0, inplace=False)
            )
          )
        )
      )
      (2): SwinTransformerStage(
        (downsample): PatchMerging(
          (normalization): LayerNorm((768,), eps=1e-05, elementwise_affine=True)
          (linear_mapping): Linear(in_features=768, out_features=384, bias=False)
        )
        (blocks): ModuleList(
          (0): SwinTransformerBlock(
            (normalization_1): LayerNorm((384,), eps=1e-05, elementwise_affine=True)
            (normalization_2): LayerNorm((384,), eps=1e-05, elementwise_affine=True)
            (window_attention): WindowMultiHeadAttention(
              (mapping_qkv): Linear(in_features=384, out_features=1152, bias=True)
              (attention_dropout): Dropout(p=0.0, inplace=False)
              (projection): Linear(in_features=384, out_features=384, bias=True)
              (projection_dropout): Dropout(p=0.0, inplace=False)
              (meta_network): Sequential(
                (0): Linear(in_features=2, out_features=256, bias=True)
                (1): ReLU(inplace=True)
                (2): Linear(in_features=256, out_features=12, bias=True)
              )
            )
            (dropout): DropPath(drop_prob=0.073)
            (feed_forward_network): FeedForward(
              (0): Linear(in_features=384, out_features=1536, bias=True)
              (1): GELU()
              (2): Dropout(p=0.0, inplace=False)
              (3): Linear(in_features=1536, out_features=384, bias=True)
              (4): Dropout(p=0.0, inplace=False)
            )
          )
          (1): SwinTransformerBlock(
            (normalization_1): LayerNorm((384,), eps=1e-05, elementwise_affine=True)
            (normalization_2): LayerNorm((384,), eps=1e-05, elementwise_affine=True)
            (window_attention): WindowMultiHeadAttention(
              (mapping_qkv): Linear(in_features=384, out_features=1152, bias=True)
              (attention_dropout): Dropout(p=0.0, inplace=False)
              (projection): Linear(in_features=384, out_features=384, bias=True)
              (projection_dropout): Dropout(p=0.0, inplace=False)
              (meta_network): Sequential(
                (0): Linear(in_features=2, out_features=256, bias=True)
                (1): ReLU(inplace=True)
                (2): Linear(in_features=256, out_features=12, bias=True)
              )
            )
            (dropout): DropPath(drop_prob=0.091)
            (feed_forward_network): FeedForward(
              (0): Linear(in_features=384, out_features=1536, bias=True)
              (1): GELU()
              (2): Dropout(p=0.0, inplace=False)
              (3): Linear(in_features=1536, out_features=384, bias=True)
              (4): Dropout(p=0.0, inplace=False)
            )
          )
          (2): SwinTransformerBlock(
            (normalization_1): LayerNorm((384,), eps=1e-05, elementwise_affine=True)
            (normalization_2): LayerNorm((384,), eps=1e-05, elementwise_affine=True)
            (window_attention): WindowMultiHeadAttention(
              (mapping_qkv): Linear(in_features=384, out_features=1152, bias=True)
              (attention_dropout): Dropout(p=0.0, inplace=False)
              (projection): Linear(in_features=384, out_features=384, bias=True)
              (projection_dropout): Dropout(p=0.0, inplace=False)
              (meta_network): Sequential(
                (0): Linear(in_features=2, out_features=256, bias=True)
                (1): ReLU(inplace=True)
                (2): Linear(in_features=256, out_features=12, bias=True)
              )
            )
            (dropout): DropPath(drop_prob=0.109)
            (feed_forward_network): FeedForward(
              (0): Linear(in_features=384, out_features=1536, bias=True)
              (1): GELU()
              (2): Dropout(p=0.0, inplace=False)
              (3): Linear(in_features=1536, out_features=384, bias=True)
              (4): Dropout(p=0.0, inplace=False)
            )
          )
          (3): SwinTransformerBlock(
            (normalization_1): LayerNorm((384,), eps=1e-05, elementwise_affine=True)
            (normalization_2): LayerNorm((384,), eps=1e-05, elementwise_affine=True)
            (window_attention): WindowMultiHeadAttention(
              (mapping_qkv): Linear(in_features=384, out_features=1152, bias=True)
              (attention_dropout): Dropout(p=0.0, inplace=False)
              (projection): Linear(in_features=384, out_features=384, bias=True)
              (projection_dropout): Dropout(p=0.0, inplace=False)
              (meta_network): Sequential(
                (0): Linear(in_features=2, out_features=256, bias=True)
                (1): ReLU(inplace=True)
                (2): Linear(in_features=256, out_features=12, bias=True)
              )
            )
            (dropout): DropPath(drop_prob=0.127)
            (feed_forward_network): FeedForward(
              (0): Linear(in_features=384, out_features=1536, bias=True)
              (1): GELU()
              (2): Dropout(p=0.0, inplace=False)
              (3): Linear(in_features=1536, out_features=384, bias=True)
              (4): Dropout(p=0.0, inplace=False)
            )
          )
          (4): SwinTransformerBlock(
            (normalization_1): LayerNorm((384,), eps=1e-05, elementwise_affine=True)
            (normalization_2): LayerNorm((384,), eps=1e-05, elementwise_affine=True)
            (window_attention): WindowMultiHeadAttention(
              (mapping_qkv): Linear(in_features=384, out_features=1152, bias=True)
              (attention_dropout): Dropout(p=0.0, inplace=False)
              (projection): Linear(in_features=384, out_features=384, bias=True)
              (projection_dropout): Dropout(p=0.0, inplace=False)
              (meta_network): Sequential(
                (0): Linear(in_features=2, out_features=256, bias=True)
                (1): ReLU(inplace=True)
                (2): Linear(in_features=256, out_features=12, bias=True)
              )
            )
            (dropout): DropPath(drop_prob=0.145)
            (feed_forward_network): FeedForward(
              (0): Linear(in_features=384, out_features=1536, bias=True)
              (1): GELU()
              (2): Dropout(p=0.0, inplace=False)
              (3): Linear(in_features=1536, out_features=384, bias=True)
              (4): Dropout(p=0.0, inplace=False)
            )
          )
          (5): SwinTransformerBlock(
            (normalization_1): LayerNorm((384,), eps=1e-05, elementwise_affine=True)
            (normalization_2): LayerNorm((384,), eps=1e-05, elementwise_affine=True)
            (window_attention): WindowMultiHeadAttention(
              (mapping_qkv): Linear(in_features=384, out_features=1152, bias=True)
              (attention_dropout): Dropout(p=0.0, inplace=False)
              (projection): Linear(in_features=384, out_features=384, bias=True)
              (projection_dropout): Dropout(p=0.0, inplace=False)
              (meta_network): Sequential(
                (0): Linear(in_features=2, out_features=256, bias=True)
                (1): ReLU(inplace=True)
                (2): Linear(in_features=256, out_features=12, bias=True)
              )
            )
            (dropout): DropPath(drop_prob=0.164)
            (feed_forward_network): FeedForward(
              (0): Linear(in_features=384, out_features=1536, bias=True)
              (1): GELU()
              (2): Dropout(p=0.0, inplace=False)
              (3): Linear(in_features=1536, out_features=384, bias=True)
              (4): Dropout(p=0.0, inplace=False)
            )
          )
        )
      )
      (3): SwinTransformerStage(
        (downsample): PatchMerging(
          (normalization): LayerNorm((1536,), eps=1e-05, elementwise_affine=True)
          (linear_mapping): Linear(in_features=1536, out_features=768, bias=False)
        )
        (blocks): ModuleList(
          (0): SwinTransformerBlock(
            (normalization_1): LayerNorm((768,), eps=1e-05, elementwise_affine=True)
            (normalization_2): LayerNorm((768,), eps=1e-05, elementwise_affine=True)
            (window_attention): WindowMultiHeadAttention(
              (mapping_qkv): Linear(in_features=768, out_features=2304, bias=True)
              (attention_dropout): Dropout(p=0.0, inplace=False)
              (projection): Linear(in_features=768, out_features=768, bias=True)
              (projection_dropout): Dropout(p=0.0, inplace=False)
              (meta_network): Sequential(
                (0): Linear(in_features=2, out_features=256, bias=True)
                (1): ReLU(inplace=True)
                (2): Linear(in_features=256, out_features=24, bias=True)
              )
            )
            (dropout): DropPath(drop_prob=0.182)
            (feed_forward_network): FeedForward(
              (0): Linear(in_features=768, out_features=3072, bias=True)
              (1): GELU()
              (2): Dropout(p=0.0, inplace=False)
              (3): Linear(in_features=3072, out_features=768, bias=True)
              (4): Dropout(p=0.0, inplace=False)
            )
          )
          (1): SwinTransformerBlock(
            (normalization_1): LayerNorm((768,), eps=1e-05, elementwise_affine=True)
            (normalization_2): LayerNorm((768,), eps=1e-05, elementwise_affine=True)
            (window_attention): WindowMultiHeadAttention(
              (mapping_qkv): Linear(in_features=768, out_features=2304, bias=True)
              (attention_dropout): Dropout(p=0.0, inplace=False)
              (projection): Linear(in_features=768, out_features=768, bias=True)
              (projection_dropout): Dropout(p=0.0, inplace=False)
              (meta_network): Sequential(
                (0): Linear(in_features=2, out_features=256, bias=True)
                (1): ReLU(inplace=True)
                (2): Linear(in_features=256, out_features=24, bias=True)
              )
            )
            (dropout): DropPath(drop_prob=0.200)
            (feed_forward_network): FeedForward(
              (0): Linear(in_features=768, out_features=3072, bias=True)
              (1): GELU()
              (2): Dropout(p=0.0, inplace=False)
              (3): Linear(in_features=3072, out_features=768, bias=True)
              (4): Dropout(p=0.0, inplace=False)
            )
          )
        )
      )
    )
  )
  (decoder): FcnDecoder(
    (drop): Dropout(p=0.2, inplace=False)
    (up_shape): ModuleList(
      (0): Upsample()
      (1): Upsample()
      (2): Upsample()
    )
    (dw_block): ModuleList(
      (0): Sequential(
        (0): CbamModule(
          (channel): ChannelAttn(
            (fc1): Conv2d(1152, 72, kernel_size=(1, 1), stride=(1, 1), bias=False)
            (act): ReLU(inplace=True)
            (fc2): Conv2d(72, 1152, kernel_size=(1, 1), stride=(1, 1), bias=False)
            (gate): Sigmoid()
          )
          (spatial): SpatialAttn(
            (conv): ConvNormAct(
              (conv): Conv2d(2, 1, kernel_size=(7, 7), stride=(1, 1), padding=(3, 3), bias=False)
              (bn): BatchNormAct2d(
                1, eps=1e-05, momentum=0.1, affine=True, track_running_stats=True
                (drop): Identity()
                (act): Identity()
              )
            )
            (gate): Sigmoid()
          )
        )
        (1): ConvModule(
          (conv): Conv2d(1152, 384, kernel_size=(5, 5), stride=(1, 1), padding=(2, 2), bias=False)
          (bn): BatchNorm2d(384, eps=1e-05, momentum=0.1, affine=True, track_running_stats=True)
          (activate): LeakyReLU(negative_slope=0.01, inplace=True)
        )
        (2): ConvModule(
          (conv): Conv2d(384, 384, kernel_size=(5, 5), stride=(1, 1), padding=(2, 2), bias=False)
          (bn): BatchNorm2d(384, eps=1e-05, momentum=0.1, affine=True, track_running_stats=True)
          (activate): LeakyReLU(negative_slope=0.01, inplace=True)
        )
      )
      (1): Sequential(
        (0): CbamModule(
          (channel): ChannelAttn(
            (fc1): Conv2d(576, 36, kernel_size=(1, 1), stride=(1, 1), bias=False)
            (act): ReLU(inplace=True)
            (fc2): Conv2d(36, 576, kernel_size=(1, 1), stride=(1, 1), bias=False)
            (gate): Sigmoid()
          )
          (spatial): SpatialAttn(
            (conv): ConvNormAct(
              (conv): Conv2d(2, 1, kernel_size=(7, 7), stride=(1, 1), padding=(3, 3), bias=False)
              (bn): BatchNormAct2d(
                1, eps=1e-05, momentum=0.1, affine=True, track_running_stats=True
                (drop): Identity()
                (act): Identity()
              )
            )
            (gate): Sigmoid()
          )
        )
        (1): ConvModule(
          (conv): Conv2d(576, 192, kernel_size=(5, 5), stride=(1, 1), padding=(2, 2), bias=False)
          (bn): BatchNorm2d(192, eps=1e-05, momentum=0.1, affine=True, track_running_stats=True)
          (activate): LeakyReLU(negative_slope=0.01, inplace=True)
        )
        (2): ConvModule(
          (conv): Conv2d(192, 192, kernel_size=(5, 5), stride=(1, 1), padding=(2, 2), bias=False)
          (bn): BatchNorm2d(192, eps=1e-05, momentum=0.1, affine=True, track_running_stats=True)
          (activate): LeakyReLU(negative_slope=0.01, inplace=True)
        )
      )
      (2): Sequential(
        (0): CbamModule(
          (channel): ChannelAttn(
            (fc1): Conv2d(288, 18, kernel_size=(1, 1), stride=(1, 1), bias=False)
            (act): ReLU(inplace=True)
            (fc2): Conv2d(18, 288, kernel_size=(1, 1), stride=(1, 1), bias=False)
            (gate): Sigmoid()
          )
          (spatial): SpatialAttn(
            (conv): ConvNormAct(
              (conv): Conv2d(2, 1, kernel_size=(7, 7), stride=(1, 1), padding=(3, 3), bias=False)
              (bn): BatchNormAct2d(
                1, eps=1e-05, momentum=0.1, affine=True, track_running_stats=True
                (drop): Identity()
                (act): Identity()
              )
            )
            (gate): Sigmoid()
          )
        )
        (1): ConvModule(
          (conv): Conv2d(288, 96, kernel_size=(5, 5), stride=(1, 1), padding=(2, 2), bias=False)
          (bn): BatchNorm2d(96, eps=1e-05, momentum=0.1, affine=True, track_running_stats=True)
          (activate): LeakyReLU(negative_slope=0.01, inplace=True)
        )
        (2): ConvModule(
          (conv): Conv2d(96, 96, kernel_size=(5, 5), stride=(1, 1), padding=(2, 2), bias=False)
          (bn): BatchNorm2d(96, eps=1e-05, momentum=0.1, affine=True, track_running_stats=True)
          (activate): LeakyReLU(negative_slope=0.01, inplace=True)
        )
      )
    )
    (out_cache): Sequential(
      (0): Upsample()
      (1): ConvModule(
        (conv): Conv2d(96, 96, kernel_size=(5, 5), stride=(1, 1), padding=(2, 2), bias=False)
        (bn): BatchNorm2d(96, eps=1e-05, momentum=0.1, affine=True, track_running_stats=True)
        (activate): LeakyReLU(negative_slope=0.01, inplace=True)
      )
      (2): ConvModule(
        (conv): Conv2d(96, 96, kernel_size=(5, 5), stride=(1, 1), padding=(2, 2), bias=False)
        (bn): BatchNorm2d(96, eps=1e-05, momentum=0.1, affine=True, track_running_stats=True)
        (activate): LeakyReLU(negative_slope=0.01, inplace=True)
      )
    )
    (out_x): Sequential(
      (0): Conv2d(96, 1, kernel_size=(3, 3), stride=(1, 1), padding=(1, 1))
      (1): Upsample()
    )
    (out_y): Sequential(
      (0): Conv2d(96, 1, kernel_size=(3, 3), stride=(1, 1), padding=(1, 1))
      (1): Upsample()
    )
    (out_z): Sequential(
      (0): Conv2d(96, 1, kernel_size=(3, 3), stride=(1, 1), padding=(1, 1))
      (1): Upsample()
    )
  )
)
[2023-05-12 11:20:02] {main.py:169} INFO - save best pth in epoch: 0
[2023-05-12 11:20:02] {main.py:170} INFO - Best error mean:1.3363994694128631.  Error mean now:1.3363994694128631
[2023-05-12 11:20:02] {main.py:174} INFO - save pth in epoch: 0
[2023-05-12 11:20:03] {plot_point_fig.py:16} INFO - Acc X 0.05: 0.0650 Acc X 0.1: 0.1483
…
